data.pth (torch, 5418 bytes, 6 tensors)

l1.weight f4 [8, 54]
-0.051144365 -0.44856146 0.5921951 0.017827708 0.12603556 -0.28566894 0.19570965 0.2643911
0.54306 0.4953067 -0.015570305 0.57118315 0.39565718 0.49160072 -0.0625862 0.29048082
-0.01199226 -0.285885 -0.31008154 0.041205272 -0.019339377 0.03924605 -0.018162029 -0.09562917
0.39482933 0.0511813 -0.14749058 -0.21931207 -0.011541546 -0.21338712 -0.1948874 0.48562732
-0.0046179444 0.3555731 -0.16904828 0.18250224 -0.162432 0.6148658 0.30757567 0.43280953
-0.2910654 -0.34017518 0.3809496 0.015778875 0.54419947 -0.07007301 -0.48553228 0.0026148017
0.06680037 -0.20521957 0.35474584 -0.0686923 0.22263302 0.19993706 -0.04055297 -0.23108062
0.44235083 -0.1530072 0.042981993 -0.22852133 0.39268184 0.49985057 0.7862696 0.303161
-0.19359958 0.7689454 0.2860547 0.7759639 -0.0061323927 0.34864575 -0.01925467 -0.23118767
-0.3332647 -0.2283057 -0.11397755 -0.22703521 -0.2128932 -0.23493485 0.5104019 0.0658446
-0.115753666 -0.23756008 0.07850796 -0.15060933 -0.22997 0.8266368 0.058661807 0.5612133
-0.058132395 0.4272136 -0.021512516 0.7494542 0.34271538 0.4111492 -0.1774916 -0.31098917
0.56876284 -0.047743626 0.53650033 -0.11538216 -0.015993884 -0.04639033 -0.14024545 -0.38118717
0.4333755 -0.24311034 0.4321973 0.19329885 -0.05371231 0.63217103 -0.5226964 -0.31663856
-0.58076376 0.35899705 -0.10793561 -0.2780176 -0.17443754 -0.36098954 -0.21492259 0.5839172
0.18571872 0.6519575 0.46739596 0.27046794 -0.46512166 0.40612945 -0.10966452 -0.6804389
0.20754057 -0.68049616 -0.66514987 -0.06406954 0.1330239 -0.08311848 -0.17301765 0.58141494
0.025484916 0.4004752 0.12929045 0.60172725 -0.30865207 -0.6176025 0.6244722 0.35549986
0.012135546 -0.19897075 -0.26957348 -0.17202681 0.16591209 -0.21944183 0.41937393 0.50537455
0.040925 0.5611075 -0.07746651 0.116285235 -0.2810884 -0.17642885 0.37230653 0.049406584
-0.2639957 0.27341974 0.6165082 -0.07470146 0.38069007 -0.09247764 0.2385431 -0.4198854
0.16238876 0.37134734 0.3374953 0.2681784 0.16016413 -0.15629536 0.06615167 -0.091011
-0.21288899 -0.12255289 0.23050903 -0.4199471 -0.16581675 0.0036006356 0.2782917 0.009412707
0.2287989 -0.38213754 0.09870327 0.12516318 -0.06572679 -0.16345608 0.2138799 -0.2747947
-0.4166095 -0.08714718 0.54103994 0.37637523 -0.04256052 -0.13293734 0.21684064 0.54324424
0.27612963 0.31329337 -0.22570795 -0.046168435 -0.14731063 -0.0011761073 0.2877054 -0.16316055
0.70710385 0.31643274 0.06173035 -0.22134626 -0.13704251 0.042519007 0.31331953 0.22225705
-0.2193196 0.078610435 0.0655836 0.39469555 0.4999625 -0.31383547 0.16217135 0.14453083
0.390661 0.0034841306 0.53247297 0.46926063 0.59980696 0.5078521 0.17953746 0.22909015
0.48144573 -0.27909514 0.4315834 0.73190176 -0.16726851 0.6353856 0.82113785 0.56567204
0.47019675 0.2618664 0.4940532 -0.01816171 0.42605153 -0.112284996 -0.10833879 0.54280907
0.077445924 0.058108438 0.23994711 0.38681677 0.45741802 0.35654175 0.17039345 0.23948677
00000000: c17c 51bd d9a9 e5be 199a 173f 6a0b 923c
00000010: 770f 013e 3343 92be 1c68 483e 455e 873e
00000020: fb05 0b3f d798 fd3e 981a 7fbc 0f39 123f
00000030: 9493 ca3e 17b3 fb3e 322d 80bd e7b9 943e
00000040: 2f7b 44bc 855f 92be 02c3 9ebe dcc6 283d
00000050: 9d6d 9ebc 77c0 203d 89c8 94bc 3ad9 c3bd
00000060: 1227 ca3e 7ca3 513d c507 17be 5893 60be
00000070: c118 3dbc 2782 5abe 9090 47be 25a4 f83e
00000080: 2052 97bb ad0d b63e fe1a 2dbe dee1 3a3e
00000090: 9354 26be d867 1d3f 8f7a 9d3e 3699 dd3e
000000a0: 8606 95be 712b aebe d30b c33e b342 813c
000000b0: a850 0b3f 7082 8fbd b097 f8be 185d 2b3b
000000c0: a2ce 883d 1425 52be 3fa1 b53e 8cae 8cbd
000000d0: e9f9 633e 4dbc 4c3e df1a 26bd 66a0 6cbe
000000e0: cf7b e23e ebad 1cbe e30d 303d 7f01 6abe
000000f0: 980d c93e 6aec ff3e f748 493f eb37 9b3e
00000100: f83e 46be 9bd9 443f c375 923e 92a5 463f
00000110: 3df2 c8bb b281 b23e f8bb 9dbc 76bc 6cbe
00000120: aca1 aabe f8c8 69be 106d e9bd eb7b 68be
00000130: ad00 5abe c392 70be b3a9 023f 89d9 863d
00000140: 4210 edbd f342 73be c8c8 a03d 5539 1abe
00000150: 417d 6bbe 789e 533f 5d47 703d adab 0f3f
00000160: 3c1c 6ebd bebb da3e 043b b0bc 3bdc 3f3f
00000170: 6478 af3e 2682 d23e 5cc0 35be f939 9fbe
00000180: 719a 113f d28e 43bd 1658 093f 7b4d ecbd
00000190: 9b05 83bc c903 3ebd 819c 0fbe f72a c3be
000001a0: 65e3 dd3e ebf1 78be f748 dd3e 22f0 453e
000001b0: 7001 5cbd f6d5 213f 6ecf 05bf 731e a2be
000001c0: efac 14bf 76ce b73e 580d ddbd 5358 8ebe
000001d0: c19f 32be 9fd3 b8be ab14 5cbe 997b 153f
000001e0: 0c2d 3e3e b0e6 263f 864e ef3e c67a 8a3e
000001f0: 6d24 eebe 33f0 cf3e cb97 e0bd 3e31 2ebf
00000200: 8485 543e ff34 2ebf 4347 2abf e436 83bd
00000210: 6b37 083e 063a aabd 8a2b 31be 9cd7 143f
00000220: bec5 d03c 160b cd3e b764 043e cc0a 1a3f
00000230: a507 9ebe 331b 1ebf 69dd 1f3f 1404 b63e
00000240: 2bd4 463c fdbe 4bbe 8905 8abe cc27 30be
00000250: dce4 293e 5cb5 60be 2eb8 d63e 3a60 013f
00000260: f9a0 273d bea4 0f3f c3a6 9ebd f426 ee3d
00000270: d2ea 8fbe c4a9 34be f69e be3e 8f5e 4a3d
00000280: 722a 87be acfd 8b3e 7bd3 1d3f 14fd 98bd
00000290: cfe9 c23e eb64 bdbd a444 743e 38fb d6be
000002a0: 3d49 263e 3d21 be3e 2fcc ac3e ae4e 893e
000002b0: 1102 243e e40b 20be 877a 873d fa63 babd
000002c0: 92ff 59be 02fd fabd 8f0a 6c3e 4e03 d7be
000002d0: decb 29be a4f8 6b3b 407c 8e3e c137 1a3c
000002e0: 424a 6a3e 88a7 c3be f124 ca3d c72a 003e
000002f0: c49b 86bd 0861 27be 5503 5b3e e4b1 8cbe
00000300: d74d d5be 397a b2bd 9881 0a3f 41b4 c03e
00000310: f153 2ebd ba20 08be 790b 5e3e 0e12 0b3f
00000320: dd60 8d3e fd67 a03e fc1f 67be 1d1b 3dbd
00000330: 99d8 16be 9d27 9aba 1f4e 933e 8f13 27be
00000340: c204 353f 7903 a23e f7d8 7c3d 98a8 62be
00000350: df54 0cbe 6928 2e3d 6b6b a03e 5a97 633e
00000360: 5195 60be 82fe a03d b250 863d 8915 ca3e
00000370: 16fb ff3e 0baf a0be 3f10 263e e4ff 133e
00000380: b804 c83e 0356 643b 2650 083f ee42 f03e
00000390: f38c 193f 9802 023f abd8 373e 9c96 6a3e
000003a0: 0e80 f63e 8fe5 8ebe 80f8 dc3e ea5d 3b3f
000003b0: 7048 2bbe a1a8 223f 1736 523f e2cf 103f
000003c0: a1bd f03e 5a13 863e 8bf4 fc3e dec7 94bc
000003d0: 6d23 da3e adf5 e5bd bae0 ddbd 89f5 0a3f
000003e0: f89b 9e3d 1d03 6e3d b2b4 753e d90c c63e
000003f0: b232 ea3e a48c b63e 9f7b 2e3e 053c 753e

l1.bias f4 [8]
0.28571457 0.21280074 0.6805419 0.41973945 0.5972441 1.070515 0.23999722 0.47464934
00000000: 2e49 923e 70e8 593e fe37 2e3f 17e8 d63e
00000010: fde4 183f a306 893f d5c1 753e 3d05 f33e

l2.weight f4 [8, 8]
-0.08102105 0.33272558 0.7892446 -0.71989983 0.19487412 -0.9497031 0.60636574 -0.23308165
-0.15560704 0.21399984 -0.013832986 -0.25584477 0.08671415 -0.3389028 -0.3469364 -0.2608129
-1.0224153 -0.8327585 0.31338578 0.3968217 0.061218057 0.044849575 1.2595555 1.3697792
0.70327395 0.25736466 -1.1328024 0.292476 1.4416072 0.7165226 0.6709253 -0.11738918
0.97569317 0.95412815 -0.12149781 0.05863588 0.41519368 -0.13988903 1.2627301 0.2819387
-0.1176709 -0.4791595 0.7475909 -0.9554787 1.0527998 0.8964852 0.016090069 -0.9727252
-0.35492724 -0.6659461 0.14438969 -0.7333983 0.52811086 1.4961207 0.13741682 -1.0544101
0.6742006 0.42314693 -0.97390264 1.1144032 0.42458975 0.93026423 -0.6929576 1.4542669
00000000: 5dee a5bd 025b aa3e ef0b 4a3f 5b4b 38bf
00000010: 158d 473e be1f 73bf c93a 1b3f f5ac 6ebe
00000020: 7457 1fbe c622 5b3e c0a3 62bc 16fe 82be
00000030: 3097 b13d ab84 adbe a6a1 b1be 4589 85be
00000040: 81de 82bf a92f 55bf 1a74 a03e 372c cb3e
00000050: c9bf 7a3d 30b4 373d 1d39 a13f ed54 af3f
00000060: c309 343f 4dc5 833e abff 90bf 6abf 953e
00000070: 9686 b83f 066e 373f c3c1 2b3f bd69 f0bd
00000080: 07c7 793f be41 743f d8d3 f8bd 2d2c 703d
00000090: 4494 d43e 123f 0fbe 24a1 a13f 455a 903e
000000a0: 71fd f0bd 6554 f5be 1e62 3f3f 419a 74bf
000000b0: 25c2 863f 0e80 653f 52cf 833c 8504 79bf
000000c0: 06b9 b5be 727b 2abf e4da 133e febf 3bbf
000000d0: 4632 073f e280 bf3f ffb6 0c3e e9f6 86bf
000000e0: 6998 2c3f b7a6 d83e af51 79bf c4a4 8e3f
000000f0: d463 d93e cc25 6e3f ab65 31bf 6b25 ba3f

l2.bias f4 [8]
0.07562321 -0.25243548 -0.59212273 -0.16505304 -0.72885674 0.8191015 1.1342373 -0.07090931
00000000: 57e0 9a3d 393f 81be 5b95 17bf aa03 29be
00000010: 5b96 3abf a3b0 513f b02e 913f e638 91bd

l3.weight f4 [7, 8]
0.054974042 -0.3196488 -0.6082964 0.18914667 0.6024327 -0.022003965 -1.1346103 -1.1704193
1.0169078 0.12956771 1.0566975 -1.0955328 -0.42598525 0.5476921 -1.1619774 -1.3829287
-0.7875026 0.2481167 -1.3969697 -1.0805343 -0.53318375 0.779553 1.1686444 -2.4015298
-0.5361084 0.2731962 -1.1549702 0.4188808 -1.0822662 0.1694591 0.18114454 0.11440794
-1.3541812 0.17441049 0.84688574 0.0300674 0.18954802 -0.3097464 0.055707052 -0.9613357
-0.8244066 -0.22664139 -1.6680758 0.5431648 0.38202932 -1.2251238 -1.1929084 0.37589222
-0.6022399 -0.00898087 0.46377712 -0.8659942 -0.74631834 -0.77619594 -1.4662545 0.81438357
00000000: 762c 613d 02a9 a3be 50b9 1bbf aaaf 413e
00000010: 0839 1a3f a941 b4bc e93a 91bf 4dd0 95bf
00000020: 092a 823f 66ad 043e dd41 873f 6b3a 8cbf
00000030: bd1a dabe 8d35 0c3f adbb 94bf cf03 b1bf
00000040: c599 49bf 4e12 7e3e e7cf b2bf f34e 8abf
00000050: bb7e 08bf c990 473f 2496 953f aab2 19c0
00000060: 663e 09bf 5fe0 8b3e 10d6 93bf 8b77 d63e
00000070: b387 8abf b086 2d3e f47d 393e b64e ea3d
00000080: cf55 adbf aa98 323e 81cd 583f e84f f63c
00000090: e018 423e 1597 9ebe 142d 643d 191a 76bf
000000a0: 500c 53bf ae14 68be 8283 d5bf d90c 0b3f
000000b0: 5999 c33e dbd0 9cbf 39b1 98bf f274 c03e
000000c0: 652c 1abf 8024 13bc 3274 ed3e ccb1 5dbf
000000d0: b80e 3fbf c7b4 46bf 3aae bbbf 717b 503f

l3.bias f4 [7]
-0.6143967 -0.35201386 0.4093109 -0.22532204 -0.6655636 -0.4856266 0.9704163
00000000: 1a49 1dbf 293b b4be 3391 d13e d2ba 66be
00000010: 6062 2abf 0da4 f8be 346d 783f
